…
2020-04-07 17:11:43.885645: I tensorflow/core/common_runtime/gpu/gpu_device.cc:1241] Created TensorFlow device (/job:localhost/replica:0/task:0/device:GPU:1 with 11519 MB memory) -> physical GPU (device: 1, name: Tesla K80, pci bus id: 0000:84:00.0, compute capability: 3.7)
('\nCHANGE: Running', 'ResNet18', '!\n')
Loading ResNet18...
reshaping via a convolution...
reshaping via a convolution...
reshaping via a convolution...
reshaping via a convolution...
Model: "model_1"
__________________________________________________________________________________________________
Layer (type)                    Output Shape         Param #     Connected to                     
==================================================================================================
input_1 (InputLayer)            (None, 224, 224, 3)  0                                            
__________________________________________________________________________________________________
conv2d_1 (Conv2D)               (None, 112, 112, 64) 9472        input_1[0][0]                    
__________________________________________________________________________________________________
batch_normalization_1 (BatchNor (None, 112, 112, 64) 256         conv2d_1[0][0]                   
__________________________________________________________________________________________________
activation_1 (Activation)       (None, 112, 112, 64) 0           batch_normalization_1[0][0]      
__________________________________________________________________________________________________
max_pooling2d_1 (MaxPooling2D)  (None, 56, 56, 64)   0           activation_1[0][0]               
__________________________________________________________________________________________________
res0a_branch2a (Conv2D)         (None, 28, 28, 64)   36928       max_pooling2d_1[0][0]            
__________________________________________________________________________________________________
batch_normalization_2 (BatchNor (None, 28, 28, 64)   256         res0a_branch2a[0][0]             
__________________________________________________________________________________________________
conv2d_3 (Conv2D)               (None, 28, 28, 64)   4160        max_pooling2d_1[0][0]            
__________________________________________________________________________________________________
activation_2 (Activation)       (None, 28, 28, 64)   0           batch_normalization_2[0][0]      
__________________________________________________________________________________________________
batch_normalization_3 (BatchNor (None, 28, 28, 64)   256         conv2d_3[0][0]                   
__________________________________________________________________________________________________
conv2d_2 (Conv2D)               (None, 28, 28, 64)   36928       activation_2[0][0]               
__________________________________________________________________________________________________
add_1 (Add)                     (None, 28, 28, 64)   0           batch_normalization_3[0][0]      
                                                                 conv2d_2[0][0]                   
__________________________________________________________________________________________________
batch_normalization_4 (BatchNor (None, 28, 28, 64)   256         add_1[0][0]                      
__________________________________________________________________________________________________
activation_3 (Activation)       (None, 28, 28, 64)   0           batch_normalization_4[0][0]      
__________________________________________________________________________________________________
conv2d_4 (Conv2D)               (None, 28, 28, 64)   36928       activation_3[0][0]               
__________________________________________________________________________________________________
batch_normalization_5 (BatchNor (None, 28, 28, 64)   256         conv2d_4[0][0]                   
__________________________________________________________________________________________________
activation_4 (Activation)       (None, 28, 28, 64)   0           batch_normalization_5[0][0]      
__________________________________________________________________________________________________
conv2d_5 (Conv2D)               (None, 28, 28, 64)   36928       activation_4[0][0]               
__________________________________________________________________________________________________
add_2 (Add)                     (None, 28, 28, 64)   0           add_1[0][0]                      
                                                                 conv2d_5[0][0]                   
__________________________________________________________________________________________________
batch_normalization_6 (BatchNor (None, 28, 28, 64)   256         add_2[0][0]                      
__________________________________________________________________________________________________
activation_5 (Activation)       (None, 28, 28, 64)   0           batch_normalization_6[0][0]      
__________________________________________________________________________________________________
conv2d_6 (Conv2D)               (None, 14, 14, 128)  73856       activation_5[0][0]               
__________________________________________________________________________________________________
batch_normalization_7 (BatchNor (None, 14, 14, 128)  512         conv2d_6[0][0]                   
__________________________________________________________________________________________________
conv2d_8 (Conv2D)               (None, 14, 14, 128)  8320        add_2[0][0]                      
__________________________________________________________________________________________________
activation_6 (Activation)       (None, 14, 14, 128)  0           batch_normalization_7[0][0]      
__________________________________________________________________________________________________
batch_normalization_8 (BatchNor (None, 14, 14, 128)  512         conv2d_8[0][0]                   
__________________________________________________________________________________________________
conv2d_7 (Conv2D)               (None, 14, 14, 128)  147584      activation_6[0][0]               
__________________________________________________________________________________________________
add_3 (Add)                     (None, 14, 14, 128)  0           batch_normalization_8[0][0]      
                                                                 conv2d_7[0][0]                   
__________________________________________________________________________________________________
batch_normalization_9 (BatchNor (None, 14, 14, 128)  512         add_3[0][0]                      
__________________________________________________________________________________________________
activation_7 (Activation)       (None, 14, 14, 128)  0           batch_normalization_9[0][0]      
__________________________________________________________________________________________________
conv2d_9 (Conv2D)               (None, 14, 14, 128)  147584      activation_7[0][0]               
__________________________________________________________________________________________________
batch_normalization_10 (BatchNo (None, 14, 14, 128)  512         conv2d_9[0][0]                   
__________________________________________________________________________________________________
activation_8 (Activation)       (None, 14, 14, 128)  0           batch_normalization_10[0][0]     
__________________________________________________________________________________________________
conv2d_10 (Conv2D)              (None, 14, 14, 128)  147584      activation_8[0][0]               
__________________________________________________________________________________________________
add_4 (Add)                     (None, 14, 14, 128)  0           add_3[0][0]                      
                                                                 conv2d_10[0][0]                  
__________________________________________________________________________________________________
batch_normalization_11 (BatchNo (None, 14, 14, 128)  512         add_4[0][0]                      
__________________________________________________________________________________________________
activation_9 (Activation)       (None, 14, 14, 128)  0           batch_normalization_11[0][0]     
______________________________________________________________________2020-04-07 17:28:15.284327: I tensorflow/stream_executor/platform/default/dso_loader.cc:44] Successfully opened dynamic library libcublas.so.10
2020-04-07 17:28:15.779804: I tensorflow/stream_executor/platform/default/dso_loader.cc:44] Successfully opened dynamic library libcudnn.so.7
2020-04-07 17:28:17.904357: W tensorflow/stream_executor/gpu/redzone_allocator.cc:312] Not found: ./bin/ptxas not found
Relying on driver to perform ptx compilation. This message will be only logged once.
____________________________
conv2d_11 (Conv2D)              (None, 7, 7, 256)    295168      activation_9[0][0]               
__________________________________________________________________________________________________
batch_normalization_12 (BatchNo (None, 7, 7, 256)    1024        conv2d_11[0][0]                  
__________________________________________________________________________________________________
conv2d_13 (Conv2D)              (None, 7, 7, 256)    33024       add_4[0][0]                      
__________________________________________________________________________________________________
activation_10 (Activation)      (None, 7, 7, 256)    0           batch_normalization_12[0][0]     
__________________________________________________________________________________________________
batch_normalization_13 (BatchNo (None, 7, 7, 256)    1024        conv2d_13[0][0]                  
__________________________________________________________________________________________________
conv2d_12 (Conv2D)              (None, 7, 7, 256)    590080      activation_10[0][0]              
__________________________________________________________________________________________________
add_5 (Add)                     (None, 7, 7, 256)    0           batch_normalization_13[0][0]     
                                                                 conv2d_12[0][0]                  
__________________________________________________________________________________________________
batch_normalization_14 (BatchNo (None, 7, 7, 256)    1024        add_5[0][0]                      
__________________________________________________________________________________________________
activation_11 (Activation)      (None, 7, 7, 256)    0           batch_normalization_14[0][0]     
__________________________________________________________________________________________________
conv2d_14 (Conv2D)              (None, 7, 7, 256)    590080      activation_11[0][0]              
__________________________________________________________________________________________________
batch_normalization_15 (BatchNo (None, 7, 7, 256)    1024        conv2d_14[0][0]                  
__________________________________________________________________________________________________
activation_12 (Activation)      (None, 7, 7, 256)    0           batch_normalization_15[0][0]     
__________________________________________________________________________________________________
conv2d_15 (Conv2D)              (None, 7, 7, 256)    590080      activation_12[0][0]              
__________________________________________________________________________________________________
add_6 (Add)                     (None, 7, 7, 256)    0           add_5[0][0]                      
                                                                 conv2d_15[0][0]                  
__________________________________________________________________________________________________
batch_normalization_16 (BatchNo (None, 7, 7, 256)    1024        add_6[0][0]                      
__________________________________________________________________________________________________
activation_13 (Activation)      (None, 7, 7, 256)    0           batch_normalization_16[0][0]     
__________________________________________________________________________________________________
conv2d_16 (Conv2D)              (None, 4, 4, 512)    1180160     activation_13[0][0]              
__________________________________________________________________________________________________
batch_normalization_17 (BatchNo (None, 4, 4, 512)    2048        conv2d_16[0][0]                  
__________________________________________________________________________________________________
conv2d_18 (Conv2D)              (None, 4, 4, 512)    131584      add_6[0][0]                      
__________________________________________________________________________________________________
activation_14 (Activation)      (None, 4, 4, 512)    0           batch_normalization_17[0][0]     
__________________________________________________________________________________________________
batch_normalization_18 (BatchNo (None, 4, 4, 512)    2048        conv2d_18[0][0]                  
__________________________________________________________________________________________________
conv2d_17 (Conv2D)              (None, 4, 4, 512)    2359808     activation_14[0][0]              
__________________________________________________________________________________________________
add_7 (Add)                     (None, 4, 4, 512)    0           batch_normalization_18[0][0]     
                                                                 conv2d_17[0][0]                  
__________________________________________________________________________________________________
batch_normalization_19 (BatchNo (None, 4, 4, 512)    2048        add_7[0][0]                      
__________________________________________________________________________________________________
activation_15 (Activation)      (None, 4, 4, 512)    0           batch_normalization_19[0][0]     
__________________________________________________________________________________________________
conv2d_19 (Conv2D)              (None, 4, 4, 512)    2359808     activation_15[0][0]              
__________________________________________________________________________________________________
batch_normalization_20 (BatchNo (None, 4, 4, 512)    2048        conv2d_19[0][0]                  
__________________________________________________________________________________________________
activation_16 (Activation)      (None, 4, 4, 512)    0           batch_normalization_20[0][0]     
__________________________________________________________________________________________________
conv2d_20 (Conv2D)              (None, 4, 4, 512)    2359808     activation_16[0][0]              
__________________________________________________________________________________________________
add_8 (Add)                     (None, 4, 4, 512)    0           add_7[0][0]                      
                                                                 conv2d_20[0][0]                  
__________________________________________________________________________________________________
batch_normalization_21 (BatchNo (None, 4, 4, 512)    2048        add_8[0][0]                      
__________________________________________________________________________________________________
activation_17 (Activation)      (None, 4, 4, 512)    0           batch_normalization_21[0][0]     
__________________________________________________________________________________________________
global_average_pooling2d_1 (Glo (None, 512)          0           activation_17[0][0]              
__________________________________________________________________________________________________
dense_1 (Dense)                 (None, 38)           19494       global_average_pooling2d_1[0][0] 
==================================================================================================
Total params: 11,214,822
Trainable params: 11,205,094
Non-trainable params: 9,728
__________________________________________________________________________________________________
None
Successfully loaded model!
('Tue Apr  7 17:11:46 2020', 'Loading images...')
…
